comp3900/backend/APIbackend/nnwlModel.pth (torch, 3615 bytes, 4 tensors)

weight f4 [30, 5]
0.30169478 0.21738212 0.94179916 -2.0987747 1.6344647 -0.5283403 -0.05728376 -0.028473223
-0.07656051 -0.080875844 0.52395654 0.07013999 0.025578853 0.03584371 0.10392838 0.53815085
0.06882033 0.006796799 0.07658734 0.07093461 -1.3298562 0.3297688 1.0045246 2.04898
0.41693524 0.569709 -2.7085218 1.1171901 0.8529067 0.91638786 0.06942058 -0.9831608
-0.24396883 0.7030159 -1.2164448 -0.53809166 -0.072057724 0.007045591 -0.06355724 -0.06083265
-0.047857195 -1.8702629 0.3630805 0.35727423 -0.040872026 0.52500224 0.085141316 0.032240413
0.06520063 0.09693705 0.5098791 0.07909218 0.041927673 0.05823993 0.11326672 0.12454515
0.7072788 -0.38000223 0.74374557 0.64676255 0.6110266 -1.2485795 -1.072368 -1.2075119
2.071248 -0.12859042 1.3347163 0.9852739 -1.2694894 0.3075064 -0.06469154 -0.33115268
0.96768343 0.62593734 0.98946935 0.5328512 0.08115691 0.024387918 0.079441495 0.06786745
0.5907385 -0.4466739 -0.25445926 -0.4604413 -2.1434197 0.9442559 -0.10008561 1.7392391
0.19622 -0.06412016 -0.19912982 1.327505 -0.276234 -0.7484971 -0.16457768 0.5174899
0.27472922 0.15770929 0.094907425 -0.00778044 0.52496946 0.057600852 0.038646866 0.056391954
0.084559314 0.54538673 0.058472473 0.026068851 0.05084398 0.07834906 -0.27905867 1.5189687
-2.19141 -0.00047425757 -1.5242089 -1.7942392 -0.46332934 2.4123077 1.2972811 1.0726482
0.5361457 0.056372233 0.024115548 0.059586573 0.0926712 -0.5748567 -0.06422387 -0.05687777
0.0034821697 0.0020833525 -0.5388002 -0.066395245 -0.026835078 -0.06113601 -0.07003894 0.39446527
0.93796974 -0.8193324 1.1080651 -0.46277127 0.3438013 -1.5513248 -1.1595978 0.9778748
0.68154746 1.1967158 -2.4040759 -0.13237078 -2.1053765 -0.62198085
00000000: bd77 9a3e 6b99 5e3e c019 713f 5352 06c0
00000010: 2436 d13f 4f41 07bf 60a2 6abd ad40 e9bc
00000020: c2cb 9cbd 3ca2 a5bd 0422 063f 8ea5 8f3d
00000030: be8a d13c dbd0 123d 67d8 d43d 41c4 093f
00000040: acf1 8c3d afb7 de3b d3d9 9c3d 2a46 913d
00000050: ba38 aabf 75d7 a83e 4394 803f 7d22 0340
00000060: 8978 d53e 73d8 113f 6c58 2dc0 1600 8f3f
00000070: 1858 5a3f 6598 6a3f 612c 8e3d 6db0 7bbf
00000080: f7d2 79be daf8 333f 77b4 9bbf 60c0 09bf
00000090: 0093 93bd b3de e63b 4c2a 82bd a82b 79bd
000000a0: e805 44bd c664 efbf b0e5 b93e a6ec b63e
000000b0: 6d69 27bd 8c66 063f 925e ae3d 860e 043d
000000c0: e887 853d ef86 c63d 7087 023f 15fb a13d
000000d0: 5abc 2b3d fe8c 6e3d 62f8 e73d 8711 ff3d
000000e0: 3910 353f a78f c2be 1c66 3e3f 3b92 253f
000000f0: 3d6c 1c3f 74d1 9fbf 5b43 89bf c08f 9abf
00000100: 548f 0440 35ad 03be fcd7 aa3f e93a 7c3f
00000110: a17e a2bf 7b71 9d3e 007d 84bd d88c a9be
00000120: 1aba 773f 6e3d 203f dd4d 7d3f f068 083f
00000130: 9835 a63d 2cc9 c73c 39b2 a23d 17fe 8a3d
00000140: a33a 173f 71b2 e4be 7c48 82be f6be ebbe
00000150: ca2d 09c0 c1ba 713f aff9 ccbd 639f de3f
00000160: e5ed 483e 6e51 83bd b0e8 4bbe afeb a93f
00000170: 8b6e 8dbe 829d 3fbf 0d87 28be 387a 043f
00000180: 4fa9 8c3e 8b7e 213e d35e c23d 10f3 febb
00000190: 6664 063f dfee 6b3d 2d4c 1e3d 40fb 663d
000001a0: 6f2d ad3d 779e 0b3f d580 6f3d 588e d53c
000001b0: c741 503d 7975 a03d c7e0 8ebe 916d c23f
000001c0: 1040 0cc0 c6a5 f8b9 4719 c3bf a1a9 e5bf
000001d0: 8139 edbe 4063 1a40 4f0d a63f 894c 893f
000001e0: d840 093f 92e6 663d f88d c53c 0d11 743d
000001f0: 66ca bd3d cf29 13bf ce87 83bd aaf8 68bd
00000200: 1d35 643b db88 083b cfee 09bf 3bfa 87bd
00000210: 3dd5 dbbc c169 7abd 9370 8fbd 5af7 c93e
00000220: c91e 703f c5bf 51bf 14d5 8d3f 5bf0 ecbe
00000230: b906 b03e d091 c6bf b36d 94bf 0156 7a3f
00000240: e579 2e3f fc2d 993f 61dc 19c0 358c 07be
00000250: 7dbe 06c0 233a 1fbf

bias f4 [30]
-4.8516684 -0.35723227 0.33910358 0.36196828 -0.18907541 3.2115626 0.49578574 -0.36465642
-0.1351948 0.3601471 0.3134456 -2.48939 -0.39283574 -1.1552184 -1.3534609 0.3742815
-0.032426897 -3.980614 2.4949217 -4.7812805 0.3561607 0.35916993 1.3391154 0.89584357
0.36603794 7.8155403 -0.36906722 -0.4045622 -0.20796338 1.2891903
00000000: de40 9bc0 26e7 b6be fc9e ad3e e853 b93e
00000010: fc9c 41be 3e8a 4d40 a1d7 fd3e 3fb4 babe
00000020: 8170 0abe 3365 b83e f17b a03e 2a52 1fc0
00000030: c421 c9be 32de 93bf 353e adbf d3a1 bf3e
00000040: 11d2 04bd 61c2 7ec0 ccac 1f40 4000 99c0
00000050: b25a b63e 1fe5 b73e 2268 ab3f 0156 653f
00000060: 5369 bb3e e818 fa40 61f6 bcbe c722 cfbe
00000070: 5af4 54be 3004 a53f

weight f4 [6, 30]
-0.9668929 0.113049075 -0.11803336 -0.091178305 -1.3462982 -0.021440541 0.66298604 0.13523115
0.11842935 -0.087905526 -0.12695318 -2.2208667 -0.50201654 0.37468863 -1.0509875 -0.09733211
1.0878054 -3.5229347 1.1163988 -1.6980782 -0.122987606 -0.086518146 -0.4927262 -0.022997634
-0.104554236 0.6563071 0.11085767 0.14299732 0.6891415 -1.1609387 1.2250493 0.57832307
-0.53186566 -0.6079481 1.3444633 0.8412627 0.5608255 0.61834043 -0.89508957 -0.5990861
-0.5031223 3.0003617 -0.40377793 -0.1822362 -0.33150297 -0.6244612 -1.7675188 3.878522
0.31768146 -5.0619097 -0.5700688 -0.6085149 1.132564 1.4862106 -0.6346423 1.4390056
0.620887 0.067715965 0.45875552 1.5767664 -0.09873319 0.677654 -0.686962 -0.690333
-1.6530627 1.5904667 -1.6730082 0.6698244 2.296678 -0.71944267 -0.71462065 0.3638001
-0.18264079 -1.9915211 -0.18070625 -0.68728083 -0.8559942 0.50301677 -1.7514341 2.5083034
-0.6746594 -0.691022 -1.5590221 -1.9414327 -0.69125193 3.072326 0.6801646 -2.2507136
-2.3156965 -2.6104531 -1.5256265 0.4661745 -0.44922566 -0.49036974 1.2126787 -1.6463885
0.28161016 0.4984909 -0.5618332 -0.45780012 -0.38056237 -0.82982683 1.6583275 2.272235
2.4900472 -0.48567623 1.8243492 0.54205227 2.8570123 4.7118454 -0.48184276 -0.49996796
1.7617037 3.1360996 -0.45378605 2.1346283 0.4999468 1.6873025 2.0841057 2.2392268
3.630222 0.43304503 -0.42759448 -0.39960375 1.8064197 3.5464535 0.7136057 0.38883954
0.6127093 -0.39065814 -0.41102868 -0.6775872 -2.1088283 0.45248803 0.16458783 -0.42656764
1.5285326 0.19548489 2.569205 1.788263 -0.38433748 -0.40952787 2.232121 -1.649323
-0.41321674 -2.655768 0.41420403 -1.5398445 0.80694896 -2.2027845 -1.9966668 0.5548784
-0.49960643 -0.5805524 -1.9789898 -3.0042446 0.5933688 0.55564433 -1.2186233 -0.57555425
-0.5403771 1.5052333 1.2310165 1.8325902 -1.0200233 -0.56389827 -1.9830543 -0.5418951
-3.4527037 0.55260855 -0.56315017 -0.5337522 -2.4543524 0.08474772 -0.56637853 -3.3423917
0.56498754 -0.2385991 -1.325817 0.97952026
00000000: 4b86 77bf 4686 e73d 79bb f1bd b1bb babd
00000010: 8053 acbf 13a4 afbc 74b9 293f 097a 0a3e
00000020: 168b f23d d007 b4bd 0400 02be ae22 0ec0
00000030: 2884 00bf 30d7 bf3e c286 86bf 0f56 c7bd
00000040: 353d 8b3f c377 61c0 28e6 8e3f a05a d9bf
00000050: ede0 fbbd 6d30 b1bd 9c46 fcbe 8965 bcbc
00000060: 8820 d6bd be03 283f 5909 e33d e46d 123e
00000070: 946b 303f a499 94bf 6ace 9c3f fb0c 143f
00000080: 5928 08bf 7da2 1bbf 6017 ac3f fe5c 573f
00000090: 4392 0f3f 8f4b 1e3f 9724 65bf b55d 19bf
000000a0: a0cc 00bf ed05 4040 fbbb cebe 209c 3abe
000000b0: c2ba a9be b0dc 1fbf 0e3e e2bf b439 7840
000000c0: 25a7 a23e 2afb a1c0 07f0 11bf a2c7 1bbf
000000d0: dbf7 903f 263c be3f eb77 22bf 5631 b83f
000000e0: 73f2 1e3f abae 8a3d 01e2 ea3e 7bd3 c93f
000000f0: a034 cabd bc7a 2d3f bedc 2fbf aab9 30bf
00000100: 8f97 d3bf 6a94 cb3f 2225 d6bf 9d79 2b3f
00000110: c6fc 1240 652d 38bf 61f1 36bf 0244 ba3e
00000120: 3006 3bbe 2aea febf 0f0b 39be a3f1 2fbf
00000130: 7022 5bbf b5c5 003f fe2e e0bf 0b88 2040
00000140: 7ab6 2cbf d1e6 30bf 098e c7bf de80 f8bf
00000150: e3f5 30bf fda0 4440 441f 2e3f b10b 10c0
00000160: 5f34 14c0 aa11 27c0 bb47 c3bf 6dae ee3e
00000170: e800 e6be be11 fbbe 0e39 9b3f dcbc d2bf
00000180: 352f 903e 333a ff3e 4dd4 0fbf c764 eabe
00000190: 12d9 c2be 886f 54bf 1344 d43f 4c6c 1140
000001a0: ef5c 1f40 8eaa f8be 4684 e93f f0c3 0a3f
000001b0: 4ad9 3640 70c7 9640 18b4 f6be cdfb ffbe
000001c0: 827f e13f dbb5 4840 a556 e8be c09d 0840
000001d0: 07f9 ff3e 87f9 d73f fd61 0540 7e4f 0f40
000001e0: 8f55 6840 14b8 dd3e aaed dabe dd98 ccbe
000001f0: c338 e73f 18f9 6240 ddae 363f fa15 c73e
00000200: 84da 1c3f 5804 c8be 5a72 d2be 5b76 2dbf
00000210: 0bf7 06c0 83ac e73e b689 283e 1367 dabe
00000220: f5a6 c33f 312d 483e db6d 2440 cde5 e43f
00000230: e2c7 c4be a3ad d1be 12db 0e40 041d d3bf
00000240: 2591 d3be 1af8 29c0 8d12 d43e a019 c5bf
00000250: 3594 4e3f 6cfa 0cc0 c792 ffbf 830c 0e3f
00000260: 6acc ffbe 159f 14bf 8a4f fdbf 8b45 40c0
00000270: 05e7 173f b53e 0e3f d9fb 9bbf 8657 13bf
00000280: 2756 0abf 7cab c03f f391 9d3f 5192 ea3f
00000290: 2090 82bf a35b 10bf b9d4 fdbf a3b9 0abf
000002a0: 19f9 5cc0 c177 0d3f 9c2a 10bf fca3 08bf
000002b0: 1c14 1dc0 3690 ad3d 2ffe 10bf bfe9 55c0
000002c0: 06a3 103f 5353 74be 5fb4 a9bf d7c1 7a3f

bias f4 [6]
-0.072811045 -0.7462265 -0.71293384 -0.5779864 -0.49550134 -0.54894763
00000000: f51d 95bd b308 3fbf d582 36bf ebf6 13bf
00000010: 5ab2 fdbe d587 0cbf
